cosinewave_model.tflite (tflite, 3168 bytes, 5 tensors)

sequential/dense_1/BiasAdd/ReadVariableOp f4 [16]
000000 ec c2 de 3d 66 49 30 bc 1c 6a bb bd c3 2a ac 3d
       0.10877022 -0.010759687 -0.09151098 0.08406594
000010 d4 01 b4 be 37 1a bc bd f0 8f e8 3c 9a 7a f6 be
       -0.35157645 -0.091846876 0.028388947 -0.48140413
000020 8d a2 ea 3d 13 25 c1 3d 80 96 56 3f 2c 30 ab 3d
       0.11456785 0.094308995 0.83823395 0.083587974
000030 d7 9b a7 bb 3d 31 ae be 04 33 bf be 1b 80 c8 3d
       -0.005115013 -0.3402194 -0.3734361 0.09790059

sequential/dense/BiasAdd/ReadVariableOp f4 [16]
000000 00 00 00 00 00 00 00 00 4a c4 ef be 00 00 00 00
       0.0 0.0 -0.46829444 0.0
000010 c4 25 cf 3e 8a fb 22 3f 94 68 fb be 75 d0 b0 be
       0.404585 0.6366507 -0.49103224 -0.3453404
000020 00 00 00 00 00 00 00 00 00 00 00 00 00 00 00 00
       0.0 0.0 0.0 0.0
000030 00 00 00 00 00 00 00 00 00 00 00 00 4f 9d 79 bd
       0.0 0.0 0.0 -0.060941037

sequential/dense/MatMul f4 [16, 1]
000000 3b 26 e6 be 18 49 ea bd 5a 69 e3 3e 17 31 0a bf
       -0.44951043 -0.11439723 0.44416314 -0.53981155
000010 ed 6b b3 3e 4c 70 88 3e fe fa 05 3f 30 06 0e 3f
       0.35043278 0.26648176 0.5233611 0.5547819
000020 bd a0 8e be b0 b7 02 bd 8a f4 f8 be 30 9f 81 be
       -0.2785701 -0.03191346 -0.48624068 -0.25316763
000030 e0 04 ad bd 00 7c 04 ba fc 55 de bd 63 9e c7 3e
       -0.084481955 -0.0005053878 -0.10856244 0.38988027

sequential/dense_1/MatMul f4 [16, 16]
000000 60 40 18 bc aa 4c 88 be 8b d0 b9 be ec 85 c5 bd
       -0.009292692 -0.2662099 -0.36291918 -0.09644684
000010 7a b0 ca 3e cc e5 c7 3e 90 7e b1 be 92 09 39 bd
       0.39587766 0.3904251 -0.34666872 -0.045175143
000020 cd 55 d4 be 4a d3 95 be c7 ba c3 3e 00 5e 11 bc
       -0.4147171 -0.29262763 0.38228437 -0.008872509
000030 f0 50 48 bd 85 17 c8 3e 26 75 0a 3e 33 6a 12 3d
       -0.048905313 0.39080444 0.13521251 0.03574581
000040 bf bf b8 3e 1d 77 83 3e d9 2c ad 3d 78 40 26 be
       0.3608379 0.25676814 0.0845582 -0.1623553
000050 0d 9c be be fe 5a ca 3d 5f c0 3a 3e de 93 89 3c
       -0.37228432 0.09880637 0.18237446 0.016794141
000060 6c a7 a0 3d 55 40 a6 3e 10 62 f7 bd 90 45 9f bd
       0.07844433 0.32470956 -0.12079251 -0.0777694
000070 1e 1e a8 be f4 18 c8 be ff ad 60 be 83 59 de be
       -0.32835478 -0.39081538 -0.21941374 -0.43427667
000080 4c 4e 89 3d a0 eb d9 bd 52 78 b6 3e 9e 24 54 3e
       0.06704387 -0.10640645 0.35638672 0.20717093
000090 87 5a 7a 3d 0e 88 88 3e 40 f5 02 3d 14 d9 09 3c
       0.06112149 0.266663 0.03197217 0.008413572
0000a0 da 9f 8f be 43 18 9e 3e e4 4c a1 be 82 f1 5e 3e
       -0.28051645 0.30877885 -0.31503975 0.21771815
0000b0 80 77 d6 bb 17 84 83 be a0 6f 99 be c0 a0 96 3e
       -0.006545007 -0.25686714 -0.29967976 0.29419518
0000c0 00 f9 e9 3b d1 6a 8e be f8 55 e9 3d 4c 6d d5 be
       0.007140279 -0.2781587 0.1139335 -0.4168495
0000d0 f2 d5 92 3e 55 aa 2d 3e 5f da af bc 7b 51 2b be
       0.28678852 0.16959508 -0.021466432 -0.16730301
0000e0 d2 d8 25 3e 82 ca 30 3e dc f7 f6 3d 34 10 c8 3d
       0.16195992 0.1726475 0.12058994 0.097687155
0000f0 c0 ca 6c bc 0f 0c a9 be bc 54 23 be cf fb b0 3e
       -0.014452636 -0.33017012 -0.15950292 0.34567115
000100 c0 9a 36 be 1d d2 51 be 83 b7 ce 3e 94 5f d5 be
       -0.1783247 -0.20490308 0.40374383 -0.41674483
000110 0b 69 85 be a3 d5 05 be 84 ff 74 be b8 c9 c2 3e
       -0.26056704 -0.13069777 -0.23925596 0.38044524
000120 b1 88 c9 3e 18 75 cb bd 90 e8 a9 bd 2a 33 69 be
       0.393621 -0.09934443 -0.08296311 -0.22773424
000130 6e 42 3f 3e a9 b6 c2 3e f8 6d 2c 3d 75 3b 1e 3e
       0.18677685 0.38029984 0.042097062 0.15452369
000140 f9 cc 98 3e 8a 8b c5 be bd 67 8b 3d 7a b4 2b 3e
       0.29843882 -0.38583022 0.06806896 0.16768065
000150 6f 1d a4 3d 4a bf 99 3e 13 81 b2 3e 91 9d de 3e
       0.080134265 0.30028754 0.348641 0.4347959
000160 ef 94 ae 3e 38 32 05 bd 8a 61 4d be 5e 4d 6f 3e
       0.34098002 -0.032518595 -0.2005674 0.23369357
000170 7f 17 85 be d4 ab e5 3d 60 42 2d 3c 10 d0 c5 3e
       -0.2599449 0.11214414 0.010574907 0.38635302
000180 58 dd 1d be cf 0b d6 3e 92 25 30 3e 3f 71 b6 3e
       -0.15416467 0.41805884 0.17201832 0.35633275
000190 83 59 c4 3d 1f 38 d7 be 19 59 5b 3d af 0f 41 3e
       0.095873855 -0.42035004 0.053551767 0.18853639
0001a0 1e 96 13 3e b4 7f d7 3d 28 b9 c1 bd 86 eb 9a be
       0.14412734 0.10522404 -0.09459144 -0.30257815
0001b0 34 3c 35 be ec fe 94 be 16 a9 10 3e 26 f4 b0 bd
       -0.17698747 -0.2910074 0.14127001 -0.086403176
0001c0 69 ed 9e 3e 58 06 0e be 22 56 df 3e ea b4 13 be
       0.31040505 -0.13869607 0.43620402 -0.14424482
0001d0 e6 5d 94 be 92 e9 66 be f5 78 07 3f da aa 88 3e
       -0.2897789 -0.22550038 0.5291894 0.2669285
0001e0 74 bf f6 3d 57 10 a0 3e 8d fb b2 be c7 c9 8b 3e
       0.120482355 0.31262466 -0.34957543 0.2730238
0001f0 5b 40 c8 3e f6 b3 00 be 14 e8 b7 3d e5 eb 90 be
       0.391116 -0.1256865 0.08979812 -0.28304973
000200 2e 51 6b 3e 03 0d 41 be 5d 59 38 be 96 f3 1e 3e
       0.22980186 -0.1885262 -0.1800284 0.15522608
000210 6e 6c 73 3d 37 01 38 be cd 4f a5 3e 97 23 a4 3c
       0.05942958 -0.17969213 0.32287446 0.020036502
000220 60 ca 0d be 32 9a 2e be 08 c5 22 bd 3a 83 29 3e
       -0.13846731 -0.17051008 -0.039738685 0.16553965
000230 30 69 c9 be 32 20 00 be a2 ec 5e 3e 3b 38 30 3e
       -0.39338064 -0.12512282 0.21769956 0.1720895
000240 91 71 db be 24 da 84 be 46 c7 74 3e 3d a0 b0 3e
       -0.42860082 -0.25947678 0.23904142 0.34497252
000250 a0 c6 2e bc e7 87 8e b9 f4 f8 be 3d 75 05 6d bd
       -0.010667473 -0.00027185606 0.09324828 -0.057866532
000260 be 96 36 3e b6 7e 47 3e 64 5a e1 bd 46 06 2d be
       0.17830941 0.1948193 -0.11003569 -0.16896924
000270 13 d4 be 3e a0 89 51 3d 64 c6 1e be 7c 27 7e be
       0.37271175 0.05115664 -0.15505368 -0.2481975
000280 00 fb 5b bc e0 a8 1f 3c f9 63 f6 be cd 6b c7 3e
       -0.013426542 0.009744853 -0.48123148 0.38949433
000290 c9 ca e4 3e 3c 17 1a 3f cf a8 4f bf bc 28 5a be
       0.44685963 0.601917 -0.81116956 -0.21304601
0002a0 9a cf 60 3e a4 d0 98 bd f0 74 93 3c d0 11 87 bc
       0.21954194 -0.0746167 0.018000096 -0.016487986
0002b0 cf 89 c6 3e f6 09 03 3e 37 41 c6 be b7 23 36 bf
       0.38777015 0.12796769 -0.3872163 -0.71148247
0002c0 b3 31 73 be c0 ad c0 3c d3 64 c3 3d 40 bd 5e bc
       -0.23749427 0.02352035 0.09540715 -0.013594925
0002d0 2b 11 b9 3e 75 0c ce 3e 75 85 3c bd 30 7e 5e 3e
       0.3614591 0.4024388 -0.046025712 0.21727824
0002e0 74 00 c9 3d 42 97 26 be 5c bc b0 be 49 ec bc 3e
       0.098145396 -0.16268638 -0.34518707 0.3689902
0002f0 36 4d 20 3e 92 ab 28 3e 62 63 36 be 5a 2f c5 3e
       0.15654454 0.16471699 -0.17811349 0.3851269
000300 12 a8 35 3e 70 87 f3 3c c9 bc 08 3e 5c d8 ae bd
       0.17739895 0.029727668 0.13353266 -0.08537361
000310 ad 27 74 be 70 0a b5 3c 73 10 05 3e 1b 38 72 be
       -0.2384326 0.022099704 0.12994556 -0.23654215
000320 78 2a 34 3d 8b ab d5 be a0 cf 53 bc c6 82 12 be
       0.043985814 -0.4173244 -0.01292792 -0.14307699
000330 62 39 76 3e 7b 91 ab 3e 00 31 37 3b 30 67 17 bd
       0.24045327 0.3350943 0.002795279 -0.03696364
000340 d2 ae c8 be 92 88 76 3e 14 08 a0 3e 19 88 a7 3e
       -0.39195877 0.24075535 0.31256163 0.32721022
000350 61 ec 08 ba a5 69 3b be f7 7c 68 be 70 eb c2 3e
       -0.00052232115 -0.18302019 -0.2270392 0.3807025
000360 14 82 76 be ca 53 5b 3e a3 10 b4 3e 88 2b a5 bd
       -0.24073058 0.21418682 0.35168943 -0.080649436
000370 10 4b b3 be b6 9c 14 3e e2 23 16 be d9 13 dd 3e
       -0.35018206 0.14512905 -0.14662126 0.43179205
000380 60 2e ba bc 4f a7 c1 3e 69 35 93 3e d9 12 3f be
       -0.022727191 0.3782296 0.28751686 -0.18659534
000390 23 82 b8 be b6 2c 21 3c 17 ae 02 3f a4 aa 29 3e
       -0.36036786 0.00983732 0.5104689 0.16569
0003a0 bc 62 d0 bd d0 7e 90 be 2d 65 69 be 30 c9 13 bd
       -0.10175082 -0.2822175 -0.22792502 -0.03608054
0003b0 e4 53 e3 3d 70 5d a8 bd 64 f2 89 be 71 3e 50 3e
       0.11099985 -0.08220947 -0.26942742 0.2033632
0003c0 19 be ae 3e 1a b2 0f 3e b0 8f b9 be 0a f8 25 3e
       0.34129408 0.14032784 -0.36242437 0.162079
0003d0 65 90 fb 3d a1 bf 0d 3e 28 18 b2 be be bc 89 3e
       0.122834004 0.13842632 -0.34784055 0.2690181
0003e0 ff 34 a7 3e ad 31 8f 3e e1 6b bb 3e 95 d6 db 3e
       0.3265762 0.27967587 0.36605743 0.4293715
0003f0 92 73 0b be 18 45 02 be 2e 54 01 be f7 3e 24 3e
       -0.13618305 -0.1272167 -0.12629768 0.16039644

sequential/dense_2/MatMul f4 [1, 16]
000000 f3 2d 4f bf 7c 65 6f be ec 09 78 3e c7 43 8e be
       -0.8092949 -0.23378557 0.24222535 -0.27786085
000010 c2 ba f0 3e 6a 33 8a 3e 13 63 1c 3e 17 a8 87 3f
       0.47017485 0.2699235 0.15272169 1.0598172
000020 2e e4 9c be 4c 06 82 3c 31 d8 b3 3f 00 53 04 bf
       -0.30642837 0.015872143 1.4050351 -0.5168915
000030 2c af e8 be dc ed 17 3e 77 81 15 3f 06 28 47 bf
       -0.45446146 0.1483683 0.5840067 -0.77795446
